AI_fertilizer_agent/model.onnx (onnx, 876655 bytes, 16 tensors)

policy.mlp_extractor.policy_net.0.weight f4 [256, 20]
0	0x3c0bb064	0.0085259415
1	0xbe00c3a3	-0.1257463
2	0xbe9b3977	-0.3031728
3	0x3d45946c	0.04823725
4	0x3e417fb3	0.1889637
5	0x3d708213	0.0587178
6	0xbe70acc4	-0.23503405
7	0x3e025fda	0.12731877
8	0x3c5306c0	0.012880027
9	0xbe83ecd9	-0.25766638
10	0x3e874cf2	0.26425892
11	0xbe469dc8	-0.19396126
12	0xbe07c923	-0.13260321
13	0x3e388dd6	0.18022856
14	0xbe4e69fc	-0.20157617
15	0xbe853b8b	-0.2602199
16	0x3e587bd0	0.2114098
17	0x3e3f6a5c	0.18692917
18	0xbe49828c	-0.19678706
19	0xbeab5bcc	-0.33468473
20	0x3e2d950f	0.16951393
21	0x3d8e9efe	0.06963919
22	0xbf0f4172	-0.55959237
23	0xbdc6e256	-0.09711139
24	0x3d97f2ed	0.07419381
25	0xbd943f1d	-0.072386004
26	0x3e1001c7	0.14063178
27	0x3d8b20b7	0.06793349
28	0x3e8301f3	0.25587425
29	0xbba06b0b	-0.004895573
30	0x3e8d757a	0.2762869
31	0xbd286377	-0.041110482
32	0xbe6a91f7	-0.22907244
33	0x3d98875c	0.07447693
34	0x3c0d0055	0.008606036
35	0xbe18113e	-0.14850327
36	0xbdfb1cb1	-0.12261332
37	0x3e317e84	0.17333418
38	0xbe00ba9d	-0.12571187
39	0xbe02f515	-0.12788804
40	0x3c3d3ead	0.011550588
41	0xbe3a1aef	-0.18174337
42	0x3e407555	0.18794759
43	0xbe29f28e	-0.16596434
44	0xbe7ef570	-0.24898314
45	0x3e1c4a91	0.1526282
46	0x3d948a7d	0.07252977
47	0x3dfe0634	0.12403527
48	0xbe20e863	-0.15713648
49	0x3f29573f	0.6614875
50	0xbde43c8e	-0.111443624
51	0x3c676718	0.014123701
52	0x3c7f330d	0.015576136
53	0xbe33c10f	-0.17554115
54	0x3e2f24d7	0.17103897
55	0x3e94cabc	0.29060924
56	0x3e339aa3	0.17539458
57	0xbe8f1c3f	-0.27951238
58	0xbe0c253a	-0.13686076
59	0x3d5dcdcc	0.05415134
60	0x3c6d4f12	0.014484184
61	0x3da7cb4c	0.08193073
62	0xbe8fdd4e	-0.2809853
63	0x3c86cf1a	0.016456176
64	0xbe48b6a6	-0.19600925
65	0x3cbab3ce	0.022790816
66	0xbdd3150c	-0.10306749
67	0xbe2f60bb	-0.17126743
68	0x3d609b96	0.05483588
69	0x3e8abe44	0.27098286
70	0x3ed69d8d	0.41917077
71	0x3ce1c3dc	0.027559213
72	0xbd26c123	-0.040711533
73	0x3ce96b48	0.028493538
74	0xbe57aa49	-0.21061052
75	0x3dd3593a	0.10319753
76	0x3df107d0	0.11769068
77	0x3f2cb787	0.6746754
78	0x3df3c160	0.11902118
79	0xbcebaf1b	-0.02877002
80	0xbea7874d	-0.32720414
81	0x3dd9324c	0.106052965
82	0xbe0f2cfb	-0.13982002
83	0xbaed084a	-0.0018084135
84	0x3e2ab249	0.16669573
85	0xbdf2c73e	-0.11854409
86	0x3e1cc9b4	0.15311319
87	0xbdfd8648	-0.12379128
88	0xbdb41da6	-0.087947175
89	0xbec661d6	-0.38746518
90	0xbe809f63	-0.25121602
91	0x3d99d60e	0.07511531
92	0xbe163b61	-0.14671089
93	0xbe04d396	-0.12971339
94	0x3e47fa97	0.19529186
95	0x3e12220f	0.14270805
96	0x3ddc5b62	0.107596174
97	0x3eba462b	0.3638166
98	0xbe681813	-0.22665434
99	0xbee648ee	-0.44977516
100	0xbebe8da9	-0.37217453
101	0x3e079365	0.1323982
102	0xbcadf68e	-0.02123573
103	0x3d90269b	0.070386134
104	0xbdbaaddd	-0.09115193
105	0x3dc56f0f	0.09640323
106	0x3dddc0ec	0.108278126
107	0xbe389834	-0.18026811
108	0x3e53a6e7	0.20669137
109	0xbdaed611	-0.08536924
110	0x3e3ad0d2	0.18243721
111	0xbe1df3d6	-0.15425047
112	0xbdc1b019	-0.09457416
113	0xbd441467	-0.04787102
114	0x3d7e3250	0.0620597
115	0xbd50f0ce	-0.0510109
116	0xbe7ed6dd	-0.24886651
117	0x3f22eb60	0.63640404
118	0x3e280e49	0.164117
119	0x3e35f295	0.17768319
120	0xbb98f312	-0.004667648
121	0xbea4a11f	-0.32154176
122	0xbe1c60c0	-0.15271282
123	0xbd012c00	-0.031536102
124	0x3e0b5127	0.13605176
125	0x3d5eb186	0.05436852
126	0xbe6c7345	-0.23090847
127	0xbddce5f4	-0.107860476
128	0xbcf4d664	-0.029887386
129	0x3e172470	0.14759994
130	0xbe42de12	-0.19030026
131	0x3df93db1	0.1216997
132	0xbe1187c0	-0.14211941
133	0xbe0bc0bd	-0.13647743
134	0x3e8252a8	0.25453687
135	0x3e0305a0	0.12795115
136	0xbe33c2fc	-0.1755485
137	0x3d40b9f9	0.047052357
138	0xbe070013	-0.13183622
139	0x3d4f92e4	0.050677195
140	0x3dccc07b	0.0999765
141	0x3e242ea3	0.16033415
142	0x3e8a6f1f	0.27037904
143	0x3e489e1d	0.19591565
144	0xbcad3b5e	-0.021146473
145	0xbe202eae	-0.15642807
146	0x3e31d392	0.17365864
147	0x3d275518	0.040852636
148	0x3f031228	0.5119958
149	0x3e95831f	0.292016
150	0xbd3c03ae	-0.045901947
151	0x3e2272df	0.15864132
152	0xbab0fe09	-0.0013503443
153	0x3e5e4c24	0.21708733
154	0x3d956eaf	0.07296502
155	0x3c2bd231	0.010487125
156	0xbe394d34	-0.18095857
157	0xbdf0f2bd	-0.11765049
158	0x3ee9b760	0.45647717
159	0x3f0339df	0.5126018
160	0xbe8a63e9	-0.2702935
161	0x3e6e23e9	0.23255886
162	0xbe0665ed	-0.13124819
163	0xbde17012	-0.11007704
164	0xbe60c892	-0.21951512
165	0x3dc54cbc	0.096337765
166	0x3becfc96	0.007232259
167	0x3da0e72f	0.07856595
168	0x3c88b65e	0.016688522
169	0x3ea32ad1	0.31868604
170	0xbe462abe	-0.19352242
171	0xbe0656af	-0.13119005
172	0xbe70897c	-0.23489946
173	0xbd0cebaf	-0.034404453
174	0x3dadc1dd	0.08484242
175	0x3e736afb	0.23771279
176	0xbd42c9dd	-0.047555793
177	0xbb26f075	-0.0025472913
178	0x3e400180	0.18750572
179	0x3e613ee4	0.21996647
180	0x3ec414c3	0.3829709
181	0xbe62db5b	-0.2215399
182	0x3cd63149	0.026146548
183	0x3e0be6da	0.13662282
184	0x3e522787	0.20522891
185	0xbe407448	-0.18794358
186	0x3d067224	0.032823697
187	0x3e6290e9	0.22125591
188	0xbe047f70	-0.12939239
189	0xbe696cde	-0.22795436
190	0x3c6ae4f1	0.01433681
191	0xbe7d9f72	-0.24767855
192	0x3df3914e	0.11892949
193	0xbe18bd2e	-0.14915916
194	0xbab786b6	-0.0014001939
195	0xbe491660	-0.19637442
196	0xbe188494	-0.14894325
197	0xbf09fae6	-0.53898466
198	0xbdde6518	-0.10859126
199	0xbe15c8bc	-0.14627355
200	0xbe0f2d32	-0.13982084
201	0xbcd9b6a7	-0.026576353
202	0xbe8caa0a	-0.2747348
203	0xbe0a3076	-0.13495049
204	0x3e000f5e	0.12505862
205	0x3d4ceb65	0.050029177
206	0xbdd37c0d	-0.10326395
207	0x3b18feec	0.0023345305
208	0xbd58e0ba	-0.05294869
209	0x3e8ae10d	0.27124825
210	0xbd162783	-0.036658775
211	0x3df7ddaa	0.12102826
212	0xbe34e855	-0.17666753
213	0xbdf89103	-0.12137034
214	0x3e96ec6d	0.29477254
215	0x3ec1923b	0.37806877
216	0xbc2f9732	-0.0107172
217	0xbd0898b2	-0.033348747
218	0xbe0f2aba	-0.13981143
219	0x3d348287	0.044069793
220	0x3eaabeb6	0.33348626
221	0x3e52bdc6	0.20580205
222	0xbe97f37d	-0.29677954
223	0xbcfbb87d	-0.03072762
224	0xbdaa26f1	-0.08308209
225	0x3e35524b	0.17707174
226	0x3eb37662	0.35051256
227	0xbdc34414	-0.09534469
228	0x3d261a17	0.040552225
229	0x3c8f9bd8	0.017530367
230	0x3e4a892d	0.19778891
231	0x3c0fedc4	0.008784715
232	0x3e5aace4	0.21355015
233	0xbd6298d5	-0.055321533
234	0xbe2e1718	-0.17000997
235	0xbebb5aa3	-0.36592588
236	0x3e7b7787	0.24557315
237	0xbeee080a	-0.46490508
238	0x3ec3435d	0.38137332
239	0x3d86a2b3	0.06574001
240	0xbeea7a90	-0.45796633
241	0xbe48f79b	-0.19625704
242	0x3e4fb181	0.20282556
243	0xbe19fab8	-0.15037048
244	0xbe086ee1	-0.13323547
245	0x3e41f7fa	0.18942252
246	0xbe473a51	-0.1945584
247	0xbe68c7ff	-0.22732542
248	0x3e1dbe90	0.15404725
249	0x3ee8c8d4	0.4546572
250	0xbe0d5a88	-0.13804066
251	0x3c9c1470	0.019052714
252	0xbd936daf	-0.07198655
253	0x3e54e85d	0.20791765
254	0x3c6942e1	0.014237137
255	0x3e98bd64	0.29831994

policy.mlp_extractor.policy_net.0.bias f4 [256]
0	0xbeed6bae	-0.46371216
1	0xbe4116f2	-0.18856409
2	0x3e307ca2	0.17235044
3	0xbe055e98	-0.13024366
4	0xbea02f08	-0.31285882
5	0x3e1ad18e	0.15119001
6	0xbeb1b740	-0.3471012
7	0x3ee9f10b	0.45691714
8	0x3e269df2	0.16271189
9	0xbe79e858	-0.24405038
10	0x3e68fff5	0.2275389
11	0x3ee21a81	0.44160846
12	0xbe12d346	-0.14338407
13	0xbbfee762	-0.007779048
14	0x3eb77bf1	0.35836747
15	0x3d3a09c8	0.045419484
16	0x3e398855	0.18118413
17	0xbea77cca	-0.32712394
18	0xbe9e648d	-0.3093609
19	0x3eb44691	0.35210088
20	0xbe9bf14b	-0.3045753
21	0x3ec34316	0.3813712
22	0x3c93a1bf	0.018021462
23	0x3e2f5fbe	0.17126366
24	0x3e89ef1b	0.26940235
25	0x3e733520	0.23750734
26	0xbe17e492	-0.14833286
27	0xbe85c269	-0.26124886
28	0xbec79f70	-0.3898883
29	0x3ddb5b7c	0.10710809
30	0xbdb01e0e	-0.085994825
31	0xbebd67cc	-0.36993253
32	0xbec0e2a0	-0.376729
33	0x3de01d74	0.10943118
34	0xbd03f6e4	-0.032217875
35	0x3df8581f	0.12126183
36	0x3d63ec07	0.055645015
37	0x3f02ce76	0.51096284
38	0xbd8baeea	-0.068204716
39	0xbe0b99d5	-0.13632901
40	0xbe8af89f	-0.27142808
41	0x3ee5edd1	0.44908002
42	0xbe0a9bd5	-0.13536008
43	0x3e9abc4d	0.30221787
44	0x3e3be97c	0.18350786
45	0xbe961899	-0.29315642
46	0x3e11cb8a	0.142378
47	0xbed92db3	-0.42417678
48	0x3e92b4fa	0.286537
49	0xbdf8de0a	-0.121517256
50	0xbeb3a34e	-0.3508553
51	0x3bdbcb28	0.0067075677
52	0x3eb1e155	0.34742227
53	0xbda6bf3c	-0.08141944
54	0xbef47574	-0.4774586
55	0xbe4c0217	-0.19922672
56	0x3dd9f5a1	0.10642553
57	0x3eaf961f	0.3429422
58	0x3f03e1a9	0.51516205
59	0xbe7f1893	-0.24911718
60	0xbbdee241	-0.006801874
61	0x3c88f545	0.016718516
62	0xbd81eb5d	-0.0634372
63	0xbee32230	-0.4436202
64	0x3e28b18b	0.16473977
65	0xbe222073	-0.15832691
66	0xbc8842b7	-0.016633375
67	0xbd574e9d	-0.052565206
68	0xbe079a2c	-0.13242406
69	0xbd5a8308	-0.053347617
70	0x3e61d868	0.22055209
71	0x3eafc210	0.34327745
72	0x3e53a788	0.20669377
73	0xbe898649	-0.26860264
74	0x3ea2db8b	0.31808123
75	0xbd282d0a	-0.041058578
76	0x3edc945d	0.43081942
77	0xbe9a903e	-0.30188173
78	0xbe872bf5	-0.26400724
79	0xbe497055	-0.19671758
80	0x3ddf21a2	0.10895087
81	0xbdd00ed9	-0.10159082
82	0x3e3bcd33	0.18339996
83	0xbd6ec429	-0.05829254
84	0xbed8bea3	-0.42332944
85	0xbe9884f8	-0.29788947
86	0xbe7489b6	-0.23880658
87	0xbe961c3e	-0.29318422
88	0xbe863f15	-0.26220003
89	0x3e0538ed	0.13009997
90	0x3e9a1b53	0.30098972
91	0xbe83648c	-0.2566265
92	0xbe778b0d	-0.24174137
93	0xbcf1a2a3	-0.029496497
94	0xbdcf0913	-0.10109153
95	0xbe8aaeec	-0.2708658
96	0xbe2afcfc	-0.16698068
97	0xbee5e8c3	-0.44904146
98	0xbefd45a8	-0.49467206
99	0x3f15182d	0.58240014
100	0xbddf5443	-0.109047435
101	0x3de41df5	0.11138526
102	0xbed96bb4	-0.42464983
103	0x3e3f9b66	0.18711624
104	0xbdf5d27a	-0.12003036
105	0xbe940bc4	-0.28915226
106	0xbecae434	-0.3962723
107	0x3eb0e632	0.34550625
108	0x3eab200a	0.3342288
109	0x3ec3c3d8	0.38235354
110	0x3e4b7862	0.19870141
111	0x3e1d6163	0.15369181
112	0x3e66189e	0.22470328
113	0xbeaeaa9a	-0.34114534
114	0xbce382f3	-0.027772402
115	0x3e042ba9	0.1290728
116	0xbed9af30	-0.4251647
117	0x3d972f08	0.073820174
118	0x3ea2ff37	0.31835338
119	0x3d3a5430	0.045490444
120	0xbd9b153f	-0.07572412
121	0x3da3a219	0.07989902
122	0xbec2a5b8	-0.38017058
123	0x3d90523c	0.07046935
124	0xbe1c5f10	-0.15270638
125	0x3e671187	0.2256528
126	0xbda20b56	-0.079123184
127	0xbe4d8c52	-0.20073059
128	0x3e96ff0e	0.29491466
129	0x3e95cc85	0.292576
130	0x3e70688c	0.23477381
131	0xbe8505ae	-0.25980896
132	0xbdb13893	-0.08653369
133	0xbd15b3f1	-0.03654856
134	0xbeb20406	-0.34768695
135	0xbb947752	-0.0045308257
136	0xbd14eca1	-0.03635848
137	0xbe6d2ed8	-0.231624
138	0xbc69caeb	-0.014269571
139	0xbea83feb	-0.32861266
140	0x3e8715fe	0.26383966
141	0xbab9e418	-0.0014182357
142	0xbeadcf27	-0.33947107
143	0x3efdcb90	0.49569368
144	0xbef04ef6	-0.46935242
145	0xbe56699a	-0.20938721
146	0x3e6b53f2	0.22981241
147	0x3e2ee821	0.17080738
148	0x3e3b04b1	0.18263508
149	0xbe81a0c3	-0.25317964
150	0x3d129546	0.03578689
151	0xbd05723e	-0.032579653
152	0x3e15c259	0.14624919
153	0xbe0d6eff	-0.13811873
154	0x3edb1868	0.42792058
155	0x3cc09308	0.02350761
156	0x3e86f475	0.2635838
157	0xbe53e702	-0.20693591
158	0xbe866be5	-0.26254192
159	0x3e81bb4b	0.25338206
160	0x3e870105	0.26367965
161	0x3e643b86	0.22288331
162	0x3dc2c53e	0.09510277
163	0x3f1696c8	0.58823824
164	0x3f23f6e0	0.64048576
165	0x3ec49d5e	0.38401312
166	0x3d27625a	0.04086528
167	0x3e2adcae	0.16685745
168	0xbea53926	-0.32270163
169	0xbdedb8d4	-0.11607519
170	0xbe64c2b8	-0.22339904
171	0xbd9f7826	-0.07786588
172	0x3eea8951	0.4580789
173	0xbee68c9e	-0.45029157
174	0x3df552a0	0.1197865
175	0xbe8f62c6	-0.28005046
176	0xbe547d8a	-0.20751014
177	0xbe0d8a81	-0.13822366
178	0xbea9cc26	-0.33163565
179	0xbc3deadc	-0.011591639
180	0xbe64433a	-0.2229127
181	0x3e5085be	0.20363519
182	0x3eb7b687	0.35881445
183	0x3e360394	0.17774802
184	0x3eca0f3e	0.39464754
185	0xbe9a2efa	-0.30113965
186	0x3e900da6	0.28135413
187	0x3e5542d5	0.20826276
188	0x3db19e60	0.08672786
189	0xbe59b1e9	-0.21259274
190	0x3e453f90	0.19262528
191	0x3e9215fe	0.28532404
192	0xbeebcd56	-0.46055096
193	0x3ede6ecc	0.43443906
194	0x3d6aacc1	0.057293657
195	0xbe47ce3d	-0.19512267
196	0x3eb5fa56	0.35542554
197	0x3ec55bd0	0.3854661
198	0x3e4b3511	0.19844462
199	0xbe34784f	-0.17624019
200	0x3d31432f	0.043276962
201	0x3eba8724	0.3643123
202	0x3cb1711b	0.021660378
203	0x3e80ad11	0.2513204
204	0x3e8b9de9	0.27268913
205	0x3d9af6dd	0.07566617
206	0x3e71dce1	0.23619415
207	0xbe8b124b	-0.27162394
208	0xbe556542	-0.20839408
209	0x3e6e34eb	0.23262374
210	0xbeb8879f	-0.3604097
211	0xbe197dbe	-0.14989373
212	0xbe2a68a3	-0.16641478
213	0x3eac48c3	0.33649263
214	0xbee392f3	-0.4444805
215	0x3d72f7d9	0.059318397
216	0x3d31b738	0.04338762
217	0xbed3058d	-0.41215172
218	0xbecce6ab	-0.40019736
219	0x3ed1ed9f	0.41001603
220	0x3e313caf	0.17308305
221	0xbebf7eca	-0.3740142
222	0x3ea93e78	0.33055472
223	0x3e56b379	0.20966901
224	0xbdeccd02	-0.1156254
225	0xbd8bccfb	-0.06826206
226	0x3ee4e7b5	0.44708028
227	0x3ec83aea	0.39107448
228	0xbe6c0dc5	-0.23052128
229	0x3eb0a8ed	0.3450388
230	0xbe9e6fb6	-0.30944604
231	0xbeeac8b4	-0.4585625
232	0x3db133f8	0.086524904
233	0x3e768e60	0.24077749
234	0xbe960724	-0.29302323
235	0x3eb41ea1	0.35179618
236	0x3ee17a55	0.44038644
237	0x3ead155b	0.33805355
238	0xbee4041f	-0.44534394
239	0xbe6145d0	-0.21999288
240	0xbb5d7606	-0.0033792271
241	0xbd498bc5	-0.04920556
242	0xbe9e4c48	-0.30917573
243	0x3e39febd	0.18163581
244	0xbee26537	-0.44217846
245	0x3eb41d15	0.35178438
246	0xbe5191cc	-0.20465773
247	0xbe882d70	-0.26597166
248	0x3de82976	0.11336033
249	0xbeac3643	-0.33635148
250	0xbebc0c7c	-0.36728275
251	0x3eb14f20	0.3463068
252	0x3d764597	0.06012496
253	0x3dda10bc	0.10647723
254	0xbec6d916	-0.38837498
255	0xbf08d954	-0.53456616

policy.mlp_extractor.policy_net.2.weight f4 [256, 256]
0	0xbd7980ef	-0.060913976
1	0x3d4ae285	0.049532432
2	0x3d7d4b08	0.061839134
3	0xbdf10ffd	-0.11770628
4	0xbe353c57	-0.17698799
5	0xbc7d6c09	-0.015467652
6	0xbd1db0bf	-0.038498636
7	0xbd9d2e7f	-0.07674884
8	0xbce67dc0	-0.028136134
9	0x3bd6308e	0.00653655
10	0x3d94e788	0.072707236
11	0x3e159ad6	0.14609846
12	0xbc0e61ed	-0.0086903395
13	0x3c504f88	0.012714274
14	0x3d849784	0.06474212
15	0xbd90019a	-0.070315555
16	0x3db0c682	0.08631612
17	0xbd2e287a	-0.04251907
18	0xbd315dc1	-0.0433023
19	0x3e422745	0.18960293
20	0xbd46cbf9	-0.048534367
21	0xbd795efd	-0.060881604
22	0xbd93fb93	-0.07225718
23	0x3d18d3f9	0.037311528
24	0x3c2d20ba	0.010566885
25	0xbd4966ac	-0.04917018
26	0xbd60f1c1	-0.054918054
27	0xbddec0d3	-0.10876622
28	0xbd5bc1c8	-0.0536516
29	0x3c0cdcf7	0.008597604
30	0x3d45860b	0.048223536
31	0x3df1817c	0.11792275
32	0x3d85bd8f	0.06530296
33	0x3ba1a9de	0.00493358
34	0xbc5d5952	-0.013510065
35	0x3e0078e0	0.1254611
36	0x3d1967b9	0.037452433
37	0x3e1e4ddb	0.15459387
38	0x3d3b688f	0.04575401
39	0x3cefc339	0.029267894
40	0x3d9c90e1	0.07644821
41	0x3cd51a1d	0.026013428
42	0x3ce77b83	0.028257137
43	0x3dfb20d7	0.12262123
44	0xbccab8f5	-0.024746398
45	0xbcd12a43	-0.025532847
46	0x3d800d29	0.0625251
47	0xbe1b96c9	-0.15194239
48	0xbc95c48d	-0.0182822
49	0x3c1c20e4	0.009529326
50	0xbda424fb	-0.08014866
51	0xbc96556b	-0.018351277
52	0x3ceebe08	0.029143348
53	0xbcc66496	-0.024217885
54	0xbe0ec91b	-0.13943903
55	0x3c9193af	0.017770616
56	0xbcf94324	-0.030427523
57	0x3d3157da	0.043296672
58	0x3dabf456	0.08396213
59	0xbb9b5282	-0.0047400603
60	0x3c965fa1	0.018356146
61	0xbd014c95	-0.031567175
62	0x3d399300	0.045306206
63	0xbd009c4b	-0.031399053
64	0x3c13dd81	0.009024979
65	0xbd024226	-0.031801365
66	0x3d31b5b9	0.043386195
67	0x3c913155	0.017723719
68	0xbad80a46	-0.0016482554
69	0x3d4ce8c2	0.050026663
70	0xbd3fc821	-0.046821717
71	0x3d98ae9c	0.07455179
72	0x3c1875ae	0.009305401
73	0x3d30c38e	0.043155245
74	0x3cdc7273	0.026910042
75	0xbd9d80f9	-0.07690615
76	0x3c431c9c	0.0119086765
77	0x3d0221e5	0.031770606
78	0xbe0c9538	-0.13728797
79	0xbd9f5dff	-0.077816
80	0xbd230b28	-0.03980556
81	0x3d290cd3	0.041271996
82	0xbd43dbbf	-0.047816988
83	0xbc611ab3	-0.013739276
84	0xbd9864d4	-0.074411064
85	0x3c912fb8	0.01772295
86	0xbdcc5e90	-0.09978974
87	0xbd89521a	-0.06705113
88	0x3d1d2dfa	0.038373925
89	0xbdbddf5c	-0.09271118
90	0x3d4e7897	0.050407972
91	0x3d62d5b7	0.055379596
92	0xbbf4a8f7	-0.0074664312
93	0x3ceb23d4	0.028703608
94	0xbd936491	-0.07196916
95	0x391f3dcd	0.00015186444
96	0xbc190968	-0.0093406215
97	0xbe18b4ff	-0.14912795
98	0xbdcf3133	-0.10116806
99	0x3def4cad	0.116845466
100	0x3d642afa	0.05570505
101	0xbc706db6	-0.014674595
102	0xbe1b6ed1	-0.15178992
103	0x3d0dbf31	0.034606162
104	0x3e069808	0.13143933
105	0xbd5e9b7e	-0.054347508
106	0xbd383aac	-0.04497783
107	0x3d825d96	0.06365506
108	0x3d0e892e	0.034798793
109	0xbe086584	-0.13319975
110	0x3b3a6641	0.0028442296
111	0x3d2ecdc0	0.042676687
112	0x3dd0ed9f	0.102015726
113	0x3af7a4e9	0.0018893752
114	0x3dd7fa56	0.10545795
115	0x3d507ad4	0.050898388
116	0xbd74cc78	-0.05976531
117	0xbcc0de2e	-0.023543444
118	0xbdec5d8a	-0.11541279
119	0x3c363caf	0.0111228665
120	0xbda79a41	-0.081837185
121	0xbcc58ec0	-0.02411592
122	0xbd063a54	-0.03277047
123	0x3d9ce8b9	0.07661576
124	0xbd267c10	-0.04064566
125	0x3d0c0cdf	0.034191962
126	0x3d959502	0.073038116
127	0xbcbef5d0	-0.023310572
128	0x3e370d15	0.17876084
129	0x3d108357	0.035281505
130	0x3da7bdd9	0.081905074
131	0x3e335075	0.1751116
132	0xbdaef177	-0.085421495
133	0xbc99424e	-0.018708374
134	0xbd8a5a2d	-0.06755481
135	0xbc8686d4	-0.016421713
136	0x3bec54ee	0.007212273
137	0xbdaa8c8a	-0.08327587
138	0x3d126972	0.03574509
139	0x3d0e96b7	0.0348117
140	0x3dbf7d3f	0.09350061
141	0x3dae7d06	0.0851994
142	0xbd8c0347	-0.068365626
143	0xbc9ac50f	-0.018892793
144	0xbd47656a	-0.0486807
145	0x3b139fa8	0.0022525582
146	0x3c3f07ac	0.011659544
147	0x3dabb877	0.08384793
148	0x3dde5663	0.10856321
149	0xbe19f04a	-0.15033069
150	0x3c940e6c	0.018073283
151	0xbd9436e5	-0.07237033
152	0xbd4ad7b9	-0.049522135
153	0x3d7d60fd	0.061860073
154	0xbb8fdafc	-0.0043901186
155	0xbd88820f	-0.06665432
156	0xbd149e82	-0.036283977
157	0xbd0e03d0	-0.034671605
158	0x3b16308a	0.0022917115
159	0x3ce68391	0.028138908
160	0x3daf4e53	0.08559861
161	0x3dbf3781	0.093367584
162	0x3db9fe3b	0.09081694
163	0xbdb81801	-0.089889534
164	0x3eb3d5b9	0.35123995
165	0x3d0c3ee7	0.034239676
166	0x3d919a10	0.07109463
167	0x3daca477	0.08429807
168	0xbdafd90d	-0.08586321
169	0x3d0042e3	0.03131379
170	0x3c82602a	0.015914995
171	0xbdc24c47	-0.09487205
172	0x3e071303	0.13190846
173	0x3d5da977	0.054116692
174	0xbd1c4291	-0.03814942
175	0xbe05b001	-0.13055421
176	0xbd9aeed5	-0.07565085
177	0x3d9ca91b	0.07649442
178	0xbde25e47	-0.11053138
179	0x3d1eabd6	0.038738094
180	0x3a396370	0.0007072007
181	0x3d355e43	0.044279348
182	0x3d08ab9d	0.03336679
183	0x3db6baa4	0.089223176
184	0x3db14141	0.08655024
185	0xbdd0b804	-0.10191348
186	0x3de7e5ed	0.11323152
187	0xbb7e851c	-0.0038836664
188	0xbd91a310	-0.0711118
189	0xbd64b100	-0.055832863
190	0xbddc41d6	-0.10754745
191	0xbd41099a	-0.047128297
192	0xbdc8790d	-0.097887136
193	0x3d11130c	0.035418555
194	0xbb46fb9e	-0.0030362378
195	0xbbe8a446	-0.007099661
196	0xbd483c65	-0.04888572
197	0xbb71efeb	-0.0036916684
198	0x3bb2384c	0.00543884
199	0xbe051884	-0.12997633
200	0xbd028283	-0.031862747
201	0x3e774923	0.24148993
202	0x3d9bab5a	0.07601042
203	0x3dc7e463	0.09760358
204	0xbd86de9d	-0.06585429
205	0xbde899fa	-0.11357494
206	0x3d0e4e30	0.034742534
207	0xbe635ccc	-0.22203368
208	0xbd490f7e	-0.04908704
209	0x3d9d345b	0.07676002
210	0xbdeb2239	-0.11481137
211	0xbdabb9e4	-0.08385065
212	0x3d50e7af	0.0510022
213	0x3dc704ef	0.09717738
214	0x3d73dc13	0.05953605
215	0xbd31208a	-0.043243922
216	0xbcb0e94c	-0.02159562
217	0xbda03438	-0.0782246
218	0xbdeb0cd1	-0.11477054
219	0x3e311820	0.17294359
220	0x3e17353d	0.14766403
221	0xbbad5763	-0.0052899583
222	0x3b228788	0.0024800021
223	0x3d8f9010	0.070098996
224	0xbd43be8f	-0.047789153
225	0x3d06e21e	0.032930486
226	0x3dcc3a3f	0.09972047
227	0xbd26513d	-0.04060482
228	0x3d39e684	0.045385852
229	0x3cad5351	0.021157892
230	0xbcc923d4	-0.024553217
231	0x3baa5b6a	0.0051988857
232	0xbcb51f4c	-0.02210965
233	0x3d6c1513	0.057637285
234	0xbdf2f520	-0.1186316
235	0x3d2899d2	0.04116232
236	0x3e41edc5	0.18938358
237	0x3dbbf80e	0.09178172
238	0x3db9385e	0.09043954
239	0xbcfb0160	-0.030640304
240	0xbdb4cf39	-0.08828587
241	0xbd88407e	-0.06652926
242	0xbd254c6a	-0.040356077
243	0xbd35cae0	-0.04438293
244	0x3c46a81c	0.012125041
245	0x3e113d57	0.14183556
246	0x3de13b78	0.10997671
247	0x3c917d89	0.017760055
248	0x3d23f261	0.040026072
249	0x3d7bdee4	0.061491862
250	0xbe660b48	-0.22465241
251	0x3d82ffc3	0.06396439
252	0x3d547f87	0.051879432
253	0x3e227d0d	0.15868016
254	0xbdae8463	-0.085213445
255	0x3beca08d	0.0072212876

policy.mlp_extractor.policy_net.2.bias f4 [256]
0	0x3f14265f	0.5787105
1	0x3d825331	0.06363524
2	0xbcc778ac	-0.024349533
3	0xbdba7024	-0.091034204
4	0xbdd7fe8e	-0.10546599
5	0xbd0e20a3	-0.034699094
6	0x3e03c555	0.12868245
7	0xbd900c26	-0.07033567
8	0xbc8fd3ef	-0.017557113
9	0x3e08cf4e	0.1336033
10	0xbe790926	-0.24319896
11	0x3c2eb356	0.010662874
12	0x3e4d8221	0.20069171
13	0xbcca0d5a	-0.02466457
14	0xbe226cc0	-0.15861797
15	0x3d367f13	0.04455478
16	0x3ec8d319	0.39223555
17	0xbe17ac46	-0.14811811
18	0x3d03c217	0.03216752
19	0x3d4e2a63	0.050333392
20	0x3c25916d	0.010105473
21	0x3da58d5c	0.08083603
22	0xbd895a10	-0.06706631
23	0xbd46cfb8	-0.04853794
24	0xbe4e43b4	-0.20143014
25	0x3ee5090d	0.44733468
26	0x3e5f4bb8	0.21806228
27	0x3c1ad2cc	0.009449672
28	0x3daf70c2	0.08566429
29	0x3d6bf9ef	0.057611402
30	0xbd02f64b	-0.031973165
31	0x3f06f55d	0.52718145
32	0xbe62c4c8	-0.22145379
33	0xbc655d6d	-0.013999325
34	0x3e04cad9	0.12968005
35	0xbf0c76e9	-0.5486894
36	0x3d03c1c1	0.0321672
37	0x3cd27144	0.025688775
38	0x3e96ff65	0.29491726
39	0x3e604ed9	0.21905078
40	0x3d98463a	0.0743527
41	0x3e5c01fe	0.21485135
42	0xbe02eb09	-0.12784971
43	0x3dd6a879	0.10481352
44	0xbe3b03f0	-0.18263221
45	0x3cd17dac	0.02557262
46	0x3dd81ec5	0.10552744
47	0x3e269aed	0.16270037
48	0x3e839ee8	0.25707173
49	0xbe407dcd	-0.18797989
50	0xbc87d554	-0.016581215
51	0xbb833769	-0.004004408
52	0x3d85310d	0.06503496
53	0xbdb3d5a2	-0.087809816
54	0xbe161141	-0.1465502
55	0x3f02d34e	0.51103675
56	0x3e66b53b	0.22530071
57	0x3da8de9d	0.08245585
58	0x3bbb2960	0.0057117194
59	0x3e5018d5	0.20321973
60	0xbe426e78	-0.18987453
61	0x3ca42da8	0.020041302
62	0xbc497ceb	-0.012297849
63	0x3b86a31b	0.004108799
64	0xbe648e2d	-0.22319861
65	0x3c5ad3cf	0.013356163
66	0x3da0eb6a	0.07857402
67	0x3e289fb8	0.16467178
68	0x3c70d669	0.014699557
69	0xbe1d145a	-0.15339795
70	0x3d6c8bb9	0.057750437
71	0xbe853358	-0.26015735
72	0x3df4a82a	0.11946137
73	0x3ef8910b	0.4854816
74	0x3d9c8463	0.07642438
75	0x3f09b207	0.53787273
76	0xbe41d0b9	-0.18927278
77	0xbd9c62c9	-0.07636029
78	0x3cbefc7d	0.023313755
79	0x3dde5935	0.10856859
80	0x3ecbbf2c	0.3979429
81	0xbd15dcbc	-0.03658746
82	0x3e33b2a7	0.17548619
83	0x3d1a60a7	0.03768983
84	0xbd5a53ea	-0.053302683
85	0xbe254d26	-0.16142711
86	0xbd485683	-0.04891063
87	0x3d4ca3d4	0.049960926
88	0x3cd9648f	0.026537208
89	0x3de607ee	0.11231981
90	0x3de00281	0.109379776
91	0xbf03ed49	-0.51533943
92	0xbd6d30e8	-0.05790797
93	0x3da28834	0.07936135
94	0xbec973e8	-0.39346242
95	0xbd918d45	-0.07107023
96	0xbdd9bdf3	-0.10631933
97	0x3e359e17	0.17736088
98	0xbdff5a9c	-0.12468454
99	0xbe9f3c8a	-0.31100875
100	0x3d5b4262	0.053530104
101	0x3a625e35	0.0008635254
102	0xbdee00b4	-0.11621228
103	0x3e3c0341	0.18360616
104	0xbedc2ac8	-0.4300139
105	0xbe076860	-0.1322341
106	0xbd5a2345	-0.053256292
107	0x3e0e7516	0.13911852
108	0x3f0e96f7	0.55699104
109	0x3ce9361f	0.02846819
110	0x3d80ba1b	0.06285497
111	0xbe2a98aa	-0.16659799
112	0x3e4bcd42	0.19902518
113	0x3d24e350	0.040255845
114	0xbefbc811	-0.49176076
115	0x3dcfa52d	0.10138927
116	0xbc880a90	-0.0166066
117	0x3e8ce256	0.2751643
118	0xbf033ff9	-0.5126949
119	0x3d85dfac	0.06536803
120	0x3d507d41	0.0509007
121	0xbcbec7ae	-0.023288574
122	0x3dfbee69	0.123013325
123	0xbd7e5625	-0.062093873
124	0x3b7271d1	0.003699411
125	0x3ee5f57f	0.4491386
126	0x3e22b7ce	0.15890428
127	0x3cc199b4	0.023632862
128	0x3e013558	0.12618005
129	0x3de6ed25	0.112757005
130	0x3de67f81	0.11254788
131	0xbe22ea8c	-0.15909785
132	0xbe2e4d80	-0.17021751
133	0x3d93c208	0.07214743
134	0x3e25e08a	0.16198936
135	0x3ed2a2a5	0.41139713
136	0x3d88b6f9	0.06675524
137	0x3e3941f7	0.1809157
138	0x3d88cfad	0.06680236
139	0xbd4fb013	-0.050705027
140	0x3c890e50	0.016730458
141	0x3e3f5d65	0.18687971
142	0xbe111a69	-0.14170231
143	0x3dbcb868	0.0921486
144	0x3ef9d62b	0.4879621
145	0xbe2c4ecd	-0.16826935
146	0x3d6fd41f	0.058551904
147	0xbe036398	-0.12830961
148	0xbefd92cb	-0.49526057
149	0xbcdd5ecd	-0.027022744
150	0xbec4f10b	-0.3846515
151	0xbc4ed99f	-0.012625127
152	0x3e052ba7	0.13004933
153	0x3dddcfd4	0.10830656
154	0x3eee3d47	0.46531126
155	0xbe49a9db	-0.19693701
156	0x3f1584be	0.58405674
157	0xba5f114f	-0.0008509354
158	0x3e389dde	0.18028972
159	0xbf0ae553	-0.5425617
160	0xbdbe788d	-0.09300337
161	0x3d846711	0.06464971
162	0xbe24cc9b	-0.16093676
163	0x3e2b4e03	0.16728978
164	0xbde819c2	-0.11333038
165	0xbe11e346	-0.14246854
166	0xbefd7412	-0.49502617
167	0x3e5859bf	0.21127985
168	0xbe1c838c	-0.15284556
169	0xbe8df586	-0.27726382
170	0x3dd03202	0.10165788
171	0xbe29413b	-0.1652879
172	0x3d8dd9a9	0.06926281
173	0x3f0ae084	0.54248834
174	0x3d35679c	0.044288263
175	0x3f050c6c	0.5197208
176	0x3e5f3d72	0.21800783
177	0xbd84ddbe	-0.064876065
178	0x3c344ddd	0.011004892
179	0x3ccb6673	0.024829125
180	0x3da4c5a8	0.080455124
181	0x3e5850e3	0.21124606
182	0x3e975ef2	0.29564625
183	0xbe8b8880	-0.2725258
184	0x3dc129c9	0.09431798
185	0x3d36730d	0.044543315
186	0xbf165016	-0.5871595
187	0x3e383498	0.17988813
188	0xbe809c80	-0.251194
189	0xbe0b2651	-0.13588835
190	0x3e4aa9b8	0.19791305
191	0x3e380226	0.1796957
192	0x3e407bac	0.18797177
193	0x3f080c65	0.5314391
194	0xbc834458	-0.0160238
195	0x3e34f240	0.17670536
196	0x3e4e1ded	0.20128603
197	0x3d37fc62	0.044918425
198	0x3b4d43a0	0.0031320825
199	0x3e8230fb	0.25427994
200	0xbd9dd250	-0.077061296
201	0xbc5dafc3	-0.013530674
202	0x3e151a84	0.14560896
203	0xbe104705	-0.14089592
204	0xbd440e99	-0.047865484
205	0x3df2dc2e	0.11858402
206	0x3d61d7f1	0.05513758
207	0xbe4c7f95	-0.19970544
208	0xbcc2016a	-0.023682315
209	0x3cdcf241	0.026970984
210	0xbefc68b9	-0.49298647
211	0x3dabb8af	0.08384835
212	0xbf17b209	-0.59256035
213	0x3d5798bf	0.052635904
214	0xbe9884f8	-0.29788947
215	0x3e19ef3b	0.15032665
216	0xbe279f93	-0.16369466
217	0x3db2450c	0.08704576
218	0x3cd2cf7b	0.0257337
219	0xbe1cc26d	-0.15308543
220	0x3ef5648b	0.4792827
221	0x3ef6da37	0.4821336
222	0xbc0f3072	-0.008739578
223	0x3d325e91	0.043547217
224	0xbd64349f	-0.055714246
225	0x3d937734	0.072004706
226	0x3e2a1e70	0.16613173
227	0x3cd8619f	0.026413737
228	0xbd707fd0	-0.05871564
229	0xbf0f984b	-0.56091756
230	0x3e32c02c	0.1745612
231	0x3d047fdb	0.032348495
232	0x3c639992	0.0138915945
233	0xbcf5b06b	-0.02999135
234	0x3ca01085	0.019539127
235	0xbeeeec5a	-0.46664697
236	0x3ea95827	0.33075067
237	0xbe4a2cc2	-0.19743636
238	0x3dcf0f23	0.10110309
239	0xbe25bb29	-0.16184677
240	0x3d3446d7	0.04401287
241	0xbd941454	-0.0723044
242	0xbd6cb000	-0.057785034
243	0xbd71d3d2	-0.0590399
244	0xbd5285d0	-0.051397145
245	0xbe5006bb	-0.20315067
246	0xbe8425b2	-0.2581001
247	0xbdf05c03	-0.117363
248	0x3d4d7b8f	0.050166663
249	0x3ecbeeb0	0.39830542
250	0xbdd58a89	-0.10426814
251	0x3c9774b5	0.018488267
252	0xbe179f93	-0.14806966
253	0xbefc8066	-0.4931671
254	0xbe2c19a9	-0.16806664
255	0xbd80f98c	-0.06297597

policy.mlp_extractor.value_net.0.weight f4 [256, 20]
0	0xbe8b4401	-0.2720032
1	0x3ea1b96d	0.3158678
2	0x3ced3ccb	0.028959652
3	0x3f8564f9	1.042144
4	0x3e525842	0.2054148
5	0xbf35aa4f	-0.70962995
6	0xbedb08dd	-0.427802
7	0x3e07a5fd	0.13246913
8	0x3de5dccf	0.112237565
9	0x3e1d6ad7	0.15372787
10	0xbddc371d	-0.107526995
11	0xbcb790e6	-0.02240796
12	0x3f0b5859	0.5443168
13	0x3de6dd4b	0.11272677
14	0xbdd21c6f	-0.102593295
15	0x3e1fa2de	0.15589473
16	0x3f28e2bd	0.65970975
17	0xbf08dd67	-0.53462833
18	0xbbce4038	-0.0062942766
19	0x3e54ad43	0.20769219
20	0xbf1c3ce8	-0.61030436
21	0xbe3ec424	-0.18629509
22	0xbcc4540f	-0.023965864
23	0xbf366533	-0.7124817
24	0xbeda91dc	-0.42689407
25	0x3f2580da	0.64649737
26	0x3db52c8d	0.08846388
27	0xbccff488	-0.025385156
28	0x3d994955	0.0748469
29	0xbf41d604	-0.75717187
30	0x3eae271f	0.34014222
31	0xbe2699b3	-0.16269569
32	0x3c90c81b	0.017673543
33	0x3e1274dc	0.14302391
34	0xbdcd2727	-0.10017233
35	0x3afb9495	0.0019194061
36	0x3e0aa318	0.13538778
37	0x3dff7872	0.12474145
38	0x3ea9b44b	0.33145365
39	0x3e91d3cf	0.2848191
40	0x3e96408d	0.29346123
41	0x3ee8ce80	0.45470047
42	0xbd877166	-0.06613426
43	0xbd9acb22	-0.07558276
44	0xbde1e552	-0.110300675
45	0xbba87a79	-0.005141553
46	0xbe42e985	-0.19034393
47	0x3ea9f961	0.33198074
48	0x3eb0932e	0.3448729
49	0x3e22317f	0.15839194
50	0x3e54e5b4	0.2079075
51	0xbe941eee	-0.28929847
52	0xbdb844a7	-0.089974694
53	0x3ee04380	0.43801498
54	0xbd4eef02	-0.050520904
55	0xbe032db0	-0.12810397
56	0xbe246e3f	-0.1605768
57	0xbf16a772	-0.5884925
58	0x3e8ca541	0.2746983
59	0x3f8be0d4	1.0927987
60	0x3e896ad5	0.2683932
61	0x3e5e370c	0.21700686
62	0x3e20325f	0.15644215
63	0x3f4772f9	0.7790981
64	0x3e4ddfe1	0.20104934
65	0xbf0feb83	-0.5621874
66	0xbe859d73	-0.26096687
67	0xbe0a0fa6	-0.13482532
68	0x3e464e85	0.1936589
69	0x3e8f5876	0.27997178
70	0xbe5217b8	-0.2051686
71	0xbba4b85e	-0.005026861
72	0x3e568b14	0.20951492
73	0x3dc682d3	0.096929215
74	0x3d956786	0.07295136
75	0xbe05c13a	-0.13061991
76	0x3e440305	0.19141777
77	0xbf19192f	-0.5980405
78	0x3e8a8867	0.27057192
79	0x3d0a7ec6	0.033812307
80	0x3e9bf52f	0.30460498
81	0xbdf15697	-0.11784094
82	0xbe851d90	-0.25999117
83	0x3f580b09	0.8439184
84	0xbe4c5925	-0.19955881
85	0xbe859792	-0.260922
86	0xbe6790c9	-0.22613825
87	0x3e166bde	0.14689586
88	0x3e80d39d	0.25161448
89	0xbc4cbea9	-0.012496629
90	0x3e17053c	0.1474809
91	0xbcba31e8	-0.022728875
92	0x3e1418d0	0.1446259
93	0x3e2d8253	0.16944246
94	0xbe1aca01	-0.15116121
95	0xbd4d70e3	-0.050156485
96	0xbe1183aa	-0.14210382
97	0xbf1426ca	-0.5787169
98	0x3e95fc6c	0.29294145
99	0x3e5926b7	0.21206175
100	0x3db8ab41	0.09017039
101	0xbd9e279f	-0.07722401
102	0x3aeef68e	0.0018231438
103	0xbf15f324	-0.5857413
104	0x3bce4d21	0.0062958156
105	0x3efa8691	0.4893079
106	0x3c656cc7	0.014002985
107	0xbd55c8f4	-0.052193597
108	0xbf3f8c0a	-0.7482306
109	0x3d8a838b	0.06763371
110	0xbeb808f4	-0.3594433
111	0xbd469cca	-0.04848937
112	0x3e8b6b99	0.27230528
113	0xbcc1208e	-0.023575094
114	0xbe22d3ad	-0.1590106
115	0xbda2adea	-0.07943328
116	0x3e833160	0.25623608
117	0x3df629cb	0.1201969
118	0xbdec7874	-0.11546412
119	0xc04c4525	-3.1917202
120	0xbdcce384	-0.10004333
121	0x3c5b1b48	0.013373204
122	0xbe24713a	-0.16058818
123	0x3f258b7a	0.6466595
124	0x3e0ef9c8	0.13962471
125	0x3e90dd64	0.28293908
126	0x3f3a025e	0.7265986
127	0xbd71be58	-0.059019417
128	0x3eaa0514	0.33207
129	0xbe74e38a	-0.23914924
130	0xbd7b67ad	-0.06137817
131	0x3ec7eecb	0.39049372
132	0xbf1cd605	-0.6126407
133	0x3d98bffa	0.074584916
134	0x3cf7ba7d	0.030240292
135	0xbdad4f70	-0.08462417
136	0xbef2f1ec	-0.47450197
137	0x3ec18e66	0.37803954
138	0x3ed7fb00	0.42183685
139	0x404706e0	3.1097946
140	0x3dba7d2f	0.09105908
141	0xbea094fa	-0.3136366
142	0x3deac3bc	0.114631146
143	0xbe8c951d	-0.27457514
144	0xbed68711	-0.41899922
145	0x3d9934b2	0.07480754
146	0x3e1b1000	0.15142822
147	0x3d09efea	0.033676066
148	0x3f23b9f9	0.63955647
149	0x3c999a41	0.018750312
150	0xbe68a087	-0.22717486
151	0xbf380c2b	-0.71893567
152	0x3f7f052b	0.9961726
153	0x3dd65a23	0.10466411
154	0x3ed09d3d	0.40744963
155	0x3e915325	0.28383747
156	0x3f804626	1.0021408
157	0x3d9f1841	0.07768298
158	0x3e8cf13f	0.27527806
159	0x3ff51ef7	1.9150075
160	0x3dfeef27	0.124479584
161	0x3d509cd2	0.050930806
162	0xbd328481	-0.043583397
163	0x3f75c655	0.96005756
164	0xbd97b37e	-0.07407282
165	0x3e4dc71e	0.20095488
166	0xbf39dd24	-0.7260306
167	0xbe4046f0	-0.1877706
168	0x3d998eea	0.07497962
169	0xbe860080	-0.26172256
170	0xbdc8c718	-0.09803599
171	0x3d491bf1	0.049098913
172	0xbe89a49f	-0.26883408
173	0x3e8b71ec	0.27235353
174	0xbe4a6556	-0.19765219
175	0x3ddb16db	0.10697719
176	0xbc79a29d	-0.015236524
177	0xbe2f4c48	-0.17118943
178	0xbe3f531c	-0.18684047
179	0x3eaa1207	0.3321688
180	0x3e58674c	0.21133155
181	0x3ec259b6	0.3795907
182	0x3deb296b	0.11482509
183	0xbe07fb1e	-0.13279387
184	0x3d985787	0.074385695
185	0xbe89cba1	-0.2691317
186	0xbee148c6	-0.44000834
187	0x3dc47fc4	0.09594682
188	0x3e4c5f6b	0.19958274
189	0x3e3a6b61	0.18205024
190	0xbd81269c	-0.06306192
191	0x3e907786	0.2821619
192	0x3eeb4de1	0.45957854
193	0x3de9079d	0.11378405
194	0xbe0b6a83	-0.1361485
195	0xbe494b9a	-0.19657746
196	0x3e0b0ec5	0.13579853
197	0xbe837088	-0.25671792
198	0x3ea7d51b	0.32779774
199	0x3eb2ffd3	0.34960803
200	0xbf539384	-0.82646966
201	0xbe0a8c14	-0.13529998
202	0xbeef1b89	-0.46700695
203	0xbe410dfe	-0.18852994
204	0x3de59679	0.11210341
205	0x3e123b76	0.14280495
206	0x3e76d515	0.24104722
207	0x3dd29902	0.1028309
208	0xbea5a296	-0.32350606
209	0xbe7473b7	-0.23872267
210	0x3e9897cb	0.2980331
211	0x3cbfb906	0.023403656
212	0x3cf35585	0.029703865
213	0x3f0a86a6	0.5411171
214	0x3e77beba	0.2419385
215	0x3df2fdb5	0.11864797
216	0x3e1a0d97	0.15044247
217	0x3edfa032	0.43676907
218	0xbee6b103	-0.45056924
219	0xbeca8e36	-0.39561623
220	0x3de092b1	0.10965479
221	0xbd8b5ba1	-0.06804586
222	0xbcbf5c6b	-0.023359498
223	0x3efc9684	0.49333584
224	0x3d002d8f	0.031293448
225	0x3dc28f37	0.09499972
226	0xbecb7199	-0.39735106
227	0xbdcfedce	-0.101527795
228	0x3eb77c44	0.35836995
229	0x3d12854f	0.035771664
230	0x3c827302	0.01592398
231	0xbd1d2b42	-0.038371332
232	0x3d40efdf	0.04710376
233	0x3e2284c0	0.15870953
234	0x3dd08a0e	0.10182582
235	0xbd114d7b	-0.03547428
236	0xbd89def0	-0.06731975
237	0xbf213fd5	-0.62988025
238	0x3ec26042	0.37964064
239	0x3cfc1d62	0.03077573
240	0xbd9c8a82	-0.07643606
241	0x3da3422a	0.07971604
242	0xbced9cb5	-0.029005388
243	0x3f04038f	0.5156793
244	0xbd90aeac	-0.07064566
245	0xbdbb62b3	-0.09149685
246	0x3e16abd0	0.14713979
247	0x3cd01723	0.025401657
248	0x3e8229e1	0.25422576
249	0xbe1f0f7a	-0.15533248
250	0xbd84a3da	-0.06476565
251	0x3e2b9e95	0.16759713
252	0xbcb6e747	-0.022327079
253	0x3dd3e847	0.10347038
254	0xbbf44875	-0.0074549266
255	0x3d18909f	0.037247296

policy.mlp_extractor.value_net.0.bias f4 [256]
0	0xbeb233cc	-0.34805143
1	0xbf4a9b8e	-0.7914361
2	0xbe8d07c4	-0.27544987
3	0xbf08cceb	-0.5343768
4	0xbf1e0eee	-0.6174153
5	0xbe6ce00e	-0.23132345
6	0xbf1252a0	-0.57157326
7	0xbe29232e	-0.16517326
8	0xbe718ab9	-0.23588075
9	0xbf6e4e6f	-0.9308843
10	0x3f5de8f8	0.8668361
11	0xbf3c1315	-0.73466617
12	0xbeceaf86	-0.4036829
13	0xbf4c47c3	-0.79797
14	0x3bf14ed8	0.0073641352
15	0xbf2bb562	-0.67073643
16	0x3f333178	0.6999736
17	0x3cd122ac	0.025529228
18	0x3e4fffc9	0.20312418
19	0x3f020fe3	0.5080549
20	0xbe55a267	-0.20862733
21	0x3d5da196	0.05410918
22	0x3e4d5ca5	0.20054872
23	0x3eaa26c2	0.33232695
24	0x3ee96363	0.4558364
25	0x3f7f8cbe	0.9982413
26	0xbf82f54c	-1.0231109
27	0xbf76698f	-0.9625482
28	0xbf0601e1	-0.52346617
29	0xbde8f1cb	-0.11374243
30	0x3f977cc3	1.1834949
31	0xbe9dcdc4	-0.3082105
32	0x3f599657	0.84995025
33	0xbd5c0bce	-0.053722195
34	0xbe5dfce2	-0.21678498
35	0xbfd9ecf8	-1.7025442
36	0xbda9d22f	-0.082920425
37	0x3f024784	0.50890374
38	0xbe962652	-0.2932611
39	0xbef11063	-0.47082815
40	0x3ee2d233	0.44300994
41	0x3f71d5c2	0.94466794
42	0x3ef0c494	0.47024977
43	0xbf219388	-0.6311574
44	0xbeaea92a	-0.34113437
45	0x3eeaa3e9	0.4582818
46	0x3eb6c92c	0.35700357
47	0x3f8373c1	1.02697
48	0x3f2f721d	0.685335
49	0x3eb72296	0.35768574
50	0xbf65a300	-0.89701843
51	0xbcb48f37	-0.022040946
52	0xbed92fbe	-0.42419237
53	0x3f08db74	0.5345986
54	0x3ec77d79	0.38962916
55	0xbc0b0110	-0.00848414
56	0xbe7869aa	-0.24259058
57	0x3ec17cd4	0.3779055
58	0xbf01ece1	-0.50752074
59	0x3f3ba2db	0.7329537
60	0xbf03c3f0	-0.5147085
61	0xbe82479f	-0.25445268
62	0x3eea072f	0.45708606
63	0x3e1db83b	0.1540231
64	0x3f035c39	0.51312596
65	0xbedc98cf	-0.43085334
66	0xbec506bd	-0.38481703
67	0xbea57fb6	-0.32323998
68	0xbf0b62b0	-0.5444746
69	0x3efbcf52	0.4918161
70	0xbfd94733	-1.6974853
71	0x3f4bcb15	0.79606754
72	0x3f0e8d46	0.55684316
73	0x3e64b045	0.22332866
74	0x3fa462a6	1.2842605
75	0x3dea04ba	0.11426683
76	0x3f46bbf8	0.7763057
77	0x3d862ab0	0.06551111
78	0xbe027cca	-0.12742916
79	0x3f4a5a9c	0.7904451
80	0x3f065592	0.5247432
81	0xbebe69cb	-0.3719009
82	0xbe772016	-0.24133334
83	0xbf77b25e	-0.9675654
84	0xbe77fb3d	-0.24216934
85	0x3d8262b5	0.06366483
86	0x3ea16ae9	0.31526878
87	0xbf09801e	-0.53711116
88	0xbe6d5c2a	-0.23179689
89	0xbea6d32a	-0.3258298
90	0xbee3fb53	-0.44527683
91	0x3e825b20	0.25460148
92	0x3f4b597c	0.7943342
93	0xbf2d93f3	-0.6780388
94	0x3f310089	0.6914144
95	0x3e05ee2b	0.13079135
96	0xbe986de0	-0.29771328
97	0xbec636fd	-0.38713828
98	0x3ed14120	0.4087
99	0x3d4737a1	0.048637036
100	0x3f167a0e	0.5877999
101	0xbefa42e0	-0.48879147
102	0x3f06db92	0.5267879
103	0x3da069b7	0.078326635
104	0x3e56ebae	0.20988342
105	0xbe31d066	-0.17364654
106	0x3d08d073	0.033401918
107	0x3f042245	0.5161479
108	0xbfb9a1dd	-1.4502522
109	0x3ee49ba8	0.44650006
110	0x3f341735	0.7034791
111	0x3ef8d11f	0.48597047
112	0x3ea0f51f	0.31437013
113	0x3f42599e	0.75917995
114	0x3e135dde	0.14391276
115	0x3f2cabfc	0.6744993
116	0xbf16af1c	-0.58860946
117	0xbf53e6c4	-0.82773995
118	0x3f71c20f	0.94436735
119	0x3e86ec2c	0.2635206
120	0xbf66ae42	-0.90109646
121	0x3eb91e7c	0.3615607
122	0x3f31c28d	0.69437486
123	0xbf3c97bf	-0.73669046
124	0x3d215112	0.039383955
125	0x3e68d745	0.22738369
126	0x3e1d741b	0.15376322
127	0x3f467d56	0.77535
128	0xbfa05d77	-1.2528523
129	0x3daf1781	0.08549405
130	0xbf6d8607	-0.92782634
131	0x3d99ab78	0.07503408
132	0xbf86037e	-1.0469816
133	0x3c97b998	0.018521115
134	0xbf9a7ca6	-1.206929
135	0x3ec4c0f5	0.38428465
136	0x3d158bdc	0.036510333
137	0x3ecae20d	0.39625588
138	0xbf062a9e	-0.5240878
139	0x3f297fc0	0.66210556
140	0x3e9ac7c9	0.3023055
141	0xbe323a42	-0.17405036
142	0x3e502483	0.20326428
143	0x3f083fdd	0.5322245
144	0x3ed7bf01	0.42137912
145	0xbd7cacad	-0.061688114
146	0xbea39620	-0.31950474
147	0xbf5f9fff	-0.8735351
148	0x3f93b899	1.154071
149	0xbf22bfa5	-0.63573676
150	0x3dd36d5e	0.103235945
151	0xbf413a48	-0.75479555
152	0x3f6e1a6d	0.9300907
153	0xbfd119dd	-1.6336018
154	0xbe284fd1	-0.16436698
155	0x3f1fcb9a	0.62420046
156	0x3efea7b7	0.4973733
157	0xbf176762	-0.59142125
158	0xbe86bcc3	-0.2631589
159	0x3f1ed035	0.6203645
160	0x3d05e8fc	0.032692894
161	0x3ebd76a0	0.37004566
162	0x3e50584d	0.20346184
163	0xbc5eb941	-0.013593973
164	0xbf0efdcb	-0.5585601
165	0xbeeedbcd	-0.4665207
166	0xbef39437	-0.47574016
167	0xbefd04d4	-0.49417746
168	0xbf76edbb	-0.964565
169	0xbed4db25	-0.41573444
170	0x3f17f41c	0.59356856
171	0x3f099d73	0.53755873
172	0xbf95b31c	-1.1695285
173	0xbf24d407	-0.6438603
174	0xbf1fe49d	-0.6245821
175	0x3f5cb432	0.86212456
176	0x3e339fd8	0.17541444
177	0xbf1f7d9c	-0.6230104
178	0x3f343d02	0.7040559
179	0xbf3c7c81	-0.7362748
180	0xbf47ac27	-0.7799706
181	0x3dd6ccee	0.10488306
182	0x3f06ba88	0.52628374
183	0x3e91cc50	0.2847619
184	0x3f71882f	0.94348425
185	0x3f8c2638	1.0949163
186	0xbf7ca3c4	-0.98687387
187	0xbea14043	-0.3149434
188	0xbd14a5c6	-0.036290906
189	0x3f5732dd	0.84061986
190	0x3ea09202	0.31361395
191	0xbf891ba8	-1.0711565
192	0xbeab6cc4	-0.3348142
193	0x3f027ed3	0.5097477
194	0xbf835392	-1.0259879
195	0x3ee66050	0.44995356
196	0xbf9e1331	-1.2349607
197	0xbf1f604f	-0.6225633
198	0xbe970797	-0.29497978
199	0x3f6a86a2	0.91611683
200	0x3e5e4ef6	0.21709809
201	0xbf0c35be	-0.54769504
202	0xbe4df005	-0.20111091
203	0x3f0a0b75	0.5392373
204	0xbf3de487	-0.7417683
205	0x3f3f1302	0.7463838
206	0x3e2201fd	0.15821071
207	0x3ec6a58b	0.38798174
208	0xbebdb2cb	-0.3705047
209	0xbdc9168e	-0.09818755
210	0x3ed9a448	0.4250815
211	0xbea50edf	-0.32237908
212	0x3fa0d590	1.2565174
213	0x3f26090c	0.64857554
214	0xbeca9a01	-0.3957062
215	0xbdd8784b	-0.10569819
216	0x3f0800e8	0.5312638
217	0x3f2ac511	0.6670695
218	0xbf15ca9f	-0.585123
219	0xbdc58ac4	-0.09645608
220	0x3f2b4b3c	0.66911674
221	0x3d5565ec	0.052099153
222	0xbf9a83ad	-1.2071434
223	0x3e7d5132	0.24738005
224	0x3c6aadf3	0.014323699
225	0xbedead5c	-0.43491638
226	0x3f595820	0.84900093
227	0x3f32a8cc	0.69788814
228	0xbd6943f8	-0.056949586
229	0xbec6c031	-0.38818505
230	0xbef8f7c3	-0.48626527
231	0xbed3e0f2	-0.41382557
232	0xbeeef406	-0.4667055
233	0x3d9f5e1c	0.07781622
234	0xbc9b807f	-0.01898217
235	0x3eb7c39b	0.35891423
236	0x3f2cab1c	0.6744859
237	0xbd5b45d7	-0.0535334
238	0xbc764f37	-0.015033535
239	0xbf56bf80	-0.83885956
240	0xbeadd27a	-0.33949643
241	0xbe9500bf	-0.29102132
242	0x3fafcaa8	1.3733721
243	0xbf8c8121	-1.0976907
244	0xbecae3f1	-0.3962703
245	0xbc7959e4	-0.0152191855
246	0x3d8919cc	0.066943735
247	0xbf2b709b	-0.669687
248	0x3f609834	0.87732244
249	0xbfa82fb6	-1.313956
250	0xbf24a0e4	-0.64308
251	0xbd96945b	-0.07352515
252	0x3e9ae141	0.3024998
253	0xbe9ae8e2	-0.302558
254	0xbe298b17	-0.16556965
255	0x3fcf3610	1.6188374

policy.mlp_extractor.value_net.2.weight f4 [256, 256]
0	0xbd6caffb	-0.057785016
1	0x3e145220	0.14484453
2	0x3e77155a	0.24129239
3	0x3c9de22a	0.019272882
4	0xbdc3adf2	-0.09554662
5	0xbe52cd14	-0.20586044
6	0x3e0e34e2	0.1388736
7	0x3dbef2d1	0.09323657
8	0xbe72e85c	-0.2372145
9	0x3ef984e1	0.4873419
10	0xbe40cac3	-0.18827347
11	0x3ec91730	0.39275503
12	0x3e89427d	0.2680854
13	0x3e95291d	0.2913293
14	0x3e15df98	0.14636075
15	0x3e00504b	0.1253063
16	0xbde4e3aa	-0.11176236
17	0xbe5f4021	-0.21801807
18	0x3de40797	0.1113426
19	0x3afcdd24	0.0019291979
20	0xbe527eb4	-0.20556146
21	0x3eb90636	0.3613755
22	0x3d7c59b5	0.06160899
23	0x3f1a62b6	0.6030687
24	0x3d8cfc50	0.06884062
25	0xbe45cd1a	-0.19316521
26	0x3e759692	0.2398322
27	0x3ea0086c	0.31256425
28	0x3f56fea4	0.839823
29	0x3deaa8a5	0.11457948
30	0xbd0c9a76	-0.034326993
31	0xbdbb6505	-0.09150127
32	0x3de58218	0.11206454
33	0xbeab61de	-0.33473104
34	0x3e0a3c0c	0.13499469
35	0x3eeeef55	0.4666697
36	0xbe1a19a2	-0.1504884
37	0xbd013410	-0.03154379
38	0xbe188d73	-0.14897709
39	0x3d85d02a	0.06533845
40	0xbe575c8c	-0.21031398
41	0xbe8d3a87	-0.27583715
42	0x3e5f4f91	0.21807696
43	0x3dca37d8	0.098739326
44	0x3e0d8080	0.1381855
45	0xbbc57feb	-0.006027212
46	0x3db73c19	0.089470096
47	0xbebd9f9b	-0.37035832
48	0xbe3b4741	-0.182889
49	0xba83df79	-0.0010061107
50	0x3e06abb3	0.13151436
51	0xbd02fb0d	-0.031977702
52	0xbe084ab0	-0.13309741
53	0xbe526eb8	-0.20550048
54	0xbef598d3	-0.47968158
55	0xbd1d45d6	-0.03839668
56	0x3a638e36	0.0008680554
57	0xbdac2bba	-0.08406778
58	0xbe4e9e6f	-0.20177625
59	0xbe021949	-0.12704958
60	0x3e4494b4	0.1919735
61	0xbd46554f	-0.0484212
62	0xbe2b9384	-0.16755491
63	0xbe8bb6d5	-0.27287927
64	0xbde1b4ca	-0.11020811
65	0x3e085cd6	0.13316664
66	0xbe64ac60	-0.22331381
67	0xbdf4b1fa	-0.11948009
68	0xbddfe0bf	-0.10931539
69	0x3dfc162e	0.12308918
70	0x3f24dac2	0.643963
71	0xbe889993	-0.26679668
72	0xbea581b5	-0.3232552
73	0x3e2721c7	0.16321479
74	0xbee94415	-0.45559755
75	0x3ee47e66	0.44627684
76	0xbd3a0526	-0.045415066
77	0x3e2515d0	0.16121602
78	0x3d5be9d3	0.05368979
79	0xbe235bbf	-0.15952967
80	0x3e0af360	0.13569403
81	0xbc90fc43	-0.017698413
82	0xbd6602fd	-0.056155194
83	0x3e930f23	0.28722486
84	0xbdd718da	-0.10502787
85	0x3da1baad	0.07896934
86	0x3e9a0a90	0.30086184
87	0xbdeef2ad	-0.116673805
88	0x3e38d220	0.18048906
89	0xbf1089c7	-0.5646023
90	0xbd04128c	-0.03224425
91	0x3e1c8a65	0.15287168
92	0xbd1a5666	-0.037680052
93	0xbda074dd	-0.0783479
94	0xbd9870be	-0.07443379
95	0xbe7fe288	-0.24988759
96	0x3e370ec7	0.17876731
97	0xbdf63945	-0.12022642
98	0x3db5d912	0.088792935
99	0xbd060c5c	-0.03272663
100	0xbd839ada	-0.0642602
101	0x3e9c7422	0.30557352
102	0xbde0e7dd	-0.109817244
103	0xbdf64cfa	-0.12026401
104	0xbdfa33d2	-0.12216915
105	0x3d09d8c7	0.033654
106	0xbeaff158	-0.34363818
107	0xbe8ea8b1	-0.27863076
108	0x3ea3a8b8	0.3196466
109	0xbe1bab18	-0.15201986
110	0xbea0ab43	-0.31380662
111	0x3e00661e	0.12538955
112	0x3e93b958	0.28852344
113	0xbe99f165	-0.30066982
114	0x3d4a2370	0.049350202
115	0xbe171d93	-0.14757375
116	0x3e0a168b	0.13485162
117	0x3e592b55	0.21207936
118	0xbea5fc0f	-0.32418868
119	0xbd813b83	-0.06310179
120	0x3dc0e86c	0.09419331
121	0x3d56c971	0.052438203
122	0xbf00c0c7	-0.50294155
123	0x3ce2b872	0.027675841
124	0xbc7936c6	-0.015210813
125	0xbe1b7120	-0.15179873
126	0x3e9a6d71	0.30161622
127	0xbcb18422	-0.021669451
128	0x3e4f99d7	0.20273529
129	0xbcd22784	-0.025653608
130	0x3e9a4ec5	0.3013822
131	0xbd5fc781	-0.05463362
132	0x3e433ce1	0.19066192
133	0xbf5eae93	-0.8698513
134	0x3ea25877	0.31708118
135	0xbefade36	-0.48997658
136	0xbe74b26d	-0.23896189
137	0x3ad13600	0.0015961528
138	0x3e882b6c	0.26595628
139	0xbd96432b	-0.0733703
140	0x3e907e21	0.2822123
141	0x3f0a684b	0.5406539
142	0xbe96b6cb	-0.29436335
143	0xbec175b5	-0.37785116
144	0x3f28006e	0.65625656
145	0x3ef4286d	0.47687092
146	0x3ba7e4a7	0.005123693
147	0x3e8100bf	0.25195882
148	0xbe650557	-0.22365318
149	0x3d1b7e1a	0.037962057
150	0x3e5c9608	0.21541607
151	0xbe0f7e8b	-0.14013116
152	0xbe895a61	-0.26826766
153	0x3f458923	0.7716238
154	0x3ec157cc	0.37762296
155	0xbd09ac9b	-0.033611875
156	0xbe416ad5	-0.1888841
157	0xbe90a797	-0.2825286
158	0xbe0b8cc6	-0.1362792
159	0xbe323b2f	-0.17405389
160	0x3ea684cb	0.32523188
161	0x3d5edc7f	0.0544095
162	0xbe26f3f1	-0.16303994
163	0x3dcca7c7	0.099929385
164	0x3e13a9eb	0.14420287
165	0xbecbcbbc	-0.39803874
166	0x3e2a6032	0.16638258
167	0x3cb7bceb	0.02242895
168	0x3e49120d	0.19635792
169	0xbe6a4db5	-0.22881205
170	0xbe58664a	-0.2113277
171	0xbe25e66e	-0.16201183
172	0x3ebbfa9d	0.3671464
173	0x3cc23a0b	0.023709318
174	0x3ea9b306	0.33144397
175	0xbe0868cf	-0.13321231
176	0xbdaefb09	-0.08543975
177	0xbe0e10ff	-0.13873671
178	0xbe019e69	-0.12658085
179	0x3ed4b0be	0.41541094
180	0x3e1bdad1	0.1522019
181	0xbe43b5ce	-0.19112322
182	0x3ce93b1f	0.028470574
183	0x3ccfe00f	0.025375394
184	0x3dadfbc0	0.08495283
185	0x3d391e65	0.045195002
186	0x3e2cc93c	0.1687364
187	0x3d984351	0.074347146
188	0xbdeaf031	-0.11471594
189	0xbd9211e9	-0.07132322
190	0xbd467308	-0.048449546
191	0x3e997673	0.29973182
192	0xbf588b39	-0.84587437
193	0xbe81bfa0	-0.2534151
194	0x3e856845	0.26056114
195	0xbe06bd1b	-0.13158076
196	0x3dcf77db	0.101302825
197	0x3e51b5df	0.20479535
198	0xbd8bb978	-0.06822485
199	0xbd59da22	-0.053186543
200	0x3daed6c6	0.085370585
201	0x3d8bcfd1	0.06826747
202	0x3e199047	0.14996444
203	0xbe265626	-0.162438
204	0xbcea23cc	-0.028581522
205	0xbdf59bea	-0.11992629
206	0xbe40b487	-0.18818866
207	0x3d034b34	0.03205414
208	0x3e2f7323	0.17133765
209	0x3bc4c97b	0.0060054637
210	0xbd868b91	-0.06569589
211	0x3e09e6ca	0.13466945
212	0xbe9d60c5	-0.30737892
213	0x3dc8734b	0.097876154
214	0xbec6325f	-0.38710305
215	0xbc976549	-0.018480914
216	0xbf2f87ff	-0.6856689
217	0x3e421d27	0.18956433
218	0xbe1aaccc	-0.1510498
219	0xbea9da4d	-0.33174363
220	0xbe2cd9db	-0.1687998
221	0xbd0ded4b	-0.03465013
222	0x3e827f1f	0.2548761
223	0x3d1ac5d4	0.03778632
224	0x3e789e32	0.24279097
225	0x3eb63c8f	0.35593078
226	0xbdc523d6	-0.09625976
227	0xbe52a993	-0.205725
228	0x3cde4f51	0.02713743
229	0x3db09975	0.086230196
230	0x3e8eae0b	0.2786716
231	0x3e087c99	0.1332878
232	0x3e306e10	0.17229486
233	0xbe9d62fe	-0.30739588
234	0x3ea9f0df	0.33191583
235	0xbc9afa8b	-0.018918296
236	0x3b7e2af3	0.0038782924
237	0x3e5a014e	0.2128956
238	0x3e6cf522	0.23140386
239	0xbd611eb6	-0.05496093
240	0x3e57e737	0.21084295
241	0x3cf8a66a	0.03035279
242	0xbdb0e122	-0.08636691
243	0x3e192b47	0.14957915
244	0x3e223eaa	0.15844217
245	0x3d5abb52	0.0534013
246	0x3e1e9e3a	0.15490046
247	0xbe8f15ff	-0.2794647
248	0x3db9cea8	0.0907262
249	0x3e7c57f3	0.24642925
250	0x3e6b117d	0.2295589
251	0x3deb60e4	0.1149309
252	0x3e8b328b	0.27187
253	0xbe4b613d	-0.19861312
254	0xbdf0b124	-0.11752537
255	0xbe66b58a	-0.22530189
